…
      "Namespace(gen_model='g_multivanilla', dis_model='d_vanilla', min_features=32, max_features=32, num_blocks=5, kernel_size=3, padding=0, min_size=25, max_size=250, scale_factor_init=0.75, noise_weight=0.1, batch_size=1, crop_size=0, num_steps=4000, lr=0.0005, gen_betas=[0.5, 0.9], dis_betas=[0.5, 0.9], num_critic=1, step_size=2000, gamma=0.1, penalty_weight=0.1, reconstruction_weight=10.0, adversarial_weight=1.0, print_every=200, eval_every=100, results_dir='./results', evaluation=False, model_to_load='', amps_to_load='', use_tb=False, device='cuda', root='../images/balloons.png', device_ids=[0], seed=3635, save='2022-01-15_01-41-28', save_path='./results')\n",
      "MultiVanilla(\n",
      "  (curr): Vanilla(\n",
      "    (features): Sequential(\n",
      "      (0): BasicBlock(\n",
      "        (conv): Conv2d(3, 32, kernel_size=(3, 3), stride=(1, 1))\n",
      "        (batch_norm): BatchNorm2d(32, eps=1e-05, momentum=0.1, affine=True, track_running_stats=True)\n",
      "        (lrelu): LeakyReLU(negative_slope=0.2, inplace=True)\n",
      "      )\n",
      "      (1): BasicBlock(\n",
      "        (conv): Conv2d(32, 32, kernel_size=(3, 3), stride=(1, 1))\n",
      "        (batch_norm): BatchNorm2d(32, eps=1e-05, momentum=0.1, affine=True, track_running_stats=True)\n",
      "        (lrelu): LeakyReLU(negative_slope=0.2, inplace=True)\n",
      "      )\n",
      "      (2): BasicBlock(\n",
      "        (conv): Conv2d(32, 32, kernel_size=(3, 3), stride=(1, 1))\n",
      "        (batch_norm): BatchNorm2d(32, eps=1e-05, momentum=0.1, affine=True, track_running_stats=True)\n",
      "        (lrelu): LeakyReLU(negative_slope=0.2, inplace=True)\n",
      "      )\n",
      "      (3): BasicBlock(\n",
      "        (conv): Conv2d(32, 32, kernel_size=(3, 3), stride=(1, 1))\n",
      "        (batch_norm): BatchNorm2d(32, eps=1e-05, momentum=0.1, affine=True, track_running_stats=True)\n",
      "        (lrelu): LeakyReLU(negative_slope=0.2, inplace=True)\n",
      "      )\n",
      "    )\n",
      "    (features_to_image): Sequential(\n",
      "      (0): Conv2d(32, 3, kernel_size=(3, 3), stride=(1, 1))\n",
      "      (1): Tanh()\n",
      "    )\n",
      "  )\n",
      "  (prev): Module()\n",
      ")\n",
      "Vanilla(\n",
      "  (features): Sequential(\n",
      "    (0): BasicBlock(\n",
      "      (conv): Conv2d(3, 32, kernel_size=(3, 3), stride=(1, 1))\n",
      "      (batch_norm): BatchNorm2d(32, eps=1e-05, momentum=0.1, affine=True, track_running_stats=True)\n",
      "      (lrelu): LeakyReLU(negative_slope=0.2, inplace=True)\n",
      "    )\n",
      "    (1): BasicBlock(\n",
      "      (conv): Conv2d(32, 32, kernel_size=(3, 3), stride=(1, 1))\n",
      "      (batch_norm): BatchNorm2d(32, eps=1e-05, momentum=0.1, affine=True, track_running_stats=True)\n",
      "      (lrelu): LeakyReLU(negative_slope=0.2, inplace=True)\n",
      "    )\n",
      "    (2): BasicBlock(\n",
      "      (conv): Conv2d(32, 32, kernel_size=(3, 3), stride=(1, 1))\n",
      "      (batch_norm): BatchNorm2d(32, eps=1e-05, momentum=0.1, affine=True, track_running_stats=True)\n",
      "      (lrelu): LeakyReLU(negative_slope=0.2, inplace=True)\n",
      "    )\n",
      "    (3): BasicBlock(\n",
      "      (conv): Conv2d(32, 32, kernel_size=(3, 3), stride=(1, 1))\n",
      "      (batch_norm): BatchNorm2d(32, eps=1e-05, momentum=0.1, affine=True, track_running_stats=True)\n",
      "      (lrelu): LeakyReLU(negative_slope=0.2, inplace=True)\n",
      "    )\n",
      "  )\n",
      "  (classifier): Conv2d(32, 1, kernel_size=(3, 3), stride=(1, 1))\n",
      ")\n",
      "Number of parameters in generator: 29763\n",
      "Number of parameters in discriminator: 29185\n",
      "\n",
      "Scale #1\n",
      "Iteration 0, D: 0.068298, D_r: 0.008378, D_f: 0.029563, D_gp: 0.303572, G: 1.88331, G_recon: 0.18590, G_adv: 0.02428\n",
      "C:\\Users\\chaos\\anaconda3\\envs\\torch\\lib\\site-packages\\torc
…
